saved_training.pth (torch, 973391 bytes, 8 tensors)

layer1.weight f4 [256, 784]
00000000: d47a 0abc d52a 0abc da75 0abc d640 0abc
00000010: 0b1b 0bbc 93fa 0abc 0cd6 0abc 1c1f 0bbc
00000020: 6de7 0abc 3c36 0bbc a30e 0bbc a00c 0bbc
00000030: 50a8 0abc 063e 0bbc 7c05 0bbc c0d0 0abc
00000040: 3205 0abc 6fb9 0abc 7b08 0abc e436 0bbc
00000050: 6346 0bbc dc45 0bbc 7218 0bbc 6a52 0bbc
00000060: 4e50 0bbc ca38 0bbc aacc 0abc 4827 0bbc
00000070: 37ab 0abc 1038 0bbc 93dc 0abc dd45 0abc
00000080: 77f8 0abc ee29 0bbc 8168 0abc 58c6 0abc
00000090: c67a 0abc 5611 0abc eb14 08bc 2a44 05bc
000000a0: 48d2 02bc 9f79 0bbc d7fb 14bc 0890 0cbc
000000b0: e2c4 08bc bd94 07bc ed44 02bc 4d51 06bc
000000c0: 83b0 08bc f114 06bc 006d 09bc 9ab4 09bc
000000d0: 1414 0abc 2b2c 0abc ac1a 0bbc 1319 0bbc
000000e0: 364e 0bbc 923f 0bbc 13c6 0abc d001 0abc
000000f0: 94fe 0abc 534e 0bbc 5803 0abc 077c 08bc
00000100: 26f6 f6bb 36cd dcbb b3f3 f7bb c1cb 0dbc
00000110: d35a 0bbc 8b0a 15bc 24e8 21bc a387 4abc
00000120: b6ad 1bbc c349 a3bb 2b6d 89bb 0571 babb
00000130: 2bad fabb ea50 ebbb 86f7 f6bb ed87 08bc
00000140: 3b12 0cbc 6e9c 0bbc 988e 0abc 6646 0abc
00000150: cc97 0abc 74f1 0abc b642 0cbc 1d46 0bbc
00000160: 9f9c 0abc 588a 24bc 77d4 22bc 582d 23bc
00000170: 5bfa ffbb 5aad a4bb 20a9 bdbb a263 08bc
00000180: d075 74bc a6eb 5abc a965 86bc 9472 abbc
00000190: c556 04bc 9ccb bc3a f2a1 083c cd46 90bb
000001a0: e5f1 4abc 8163 21bc fadf 82bb ebe1 15bb
000001b0: d8b9 b0bb 5a00 0abc ce24 13bc d68e 0abc
000001c0: cba5 0abc 184f 0abc 5c0c 0ebc 3f33 10bc
000001d0: 12bb 1dbc 3762 34bc 97ca 22bc 53c8 ccbb
000001e0: 6bdb e9bb d9f9 b6bb 51dc a6bb ead9 61bb
000001f0: d8f4 16bc cc11 e53a 5902 933c ef38 383b
00000200: 7530 873b aa18 903c f8ca b43b e260 9e3b
00000210: ef92 40bb a2f9 c8bb 6291 b4bb 8bff b9bb
00000220: 9626 9cbb 8249 bcbb 5f41 d7bb 0754 01bc
00000230: 9dc8 0abc 39a6 0abc c374 0cbc f920 0dbc
00000240: bcba 1fbc c815 68bc ca12 55bc 0bba 46bc
00000250: 8983 58bc 0f9d 87bc 2394 1b3a 22c4 e33c
00000260: 1af1 163d 719d 193d d572 273d e934 a43c
00000270: c3ff 493c b045 f13c dcb7 f13c 985f ad3c
00000280: 2fe5 593c d4a5 c53c 2fa9 e7ba df45 03bb
00000290: 6b6d 00bb 2a37 93b7 b465 c1bb 2f96 00bc
000002a0: c7f9 0abc 3053 0abc b9b7 06bc 808c 14bc
000002b0: bb57 66bc 7d53 97bc 0f90 8bbc 6de8 5dbc
000002c0: 2219 9abc 58b8 a4bc 98b6 e738 3c2f 0b3b
000002d0: 5d24 a03c db00 273d bda2 1a3d e6ed 8d3d
000002e0: 2873 a53c c153 7a3c dee5 aebb 749c 853b
000002f0: 99bb 84bb 2c4d 48bb 3329 85bc 82a6 26bc
00000300: 805d a2bb 4e76 e4bb 5e6b 42bc 5a1e 0cbc
00000310: c2cf 0abc 2d8e 13bc 5623 09bc 774a 32bc
00000320: b18b a7bc e396 cebc ee00 bfbc 6b94 dabc
00000330: 1ed7 cdbb cbfb 83bc 6f05 80bb 462f b43b
00000340: 2d56 893c f3bb db3c 1c1e 193c e88e 2a3d
00000350: 293a 3a3c 7ba0 29bc f5ff dfbc 746c 1dbd
00000360: 3beb 32bd f00d a5bc c721 60bc 1f40 a7bb
00000370: 0033 133a 5b08 6dbb 1787 28bc d9fe 09bc
00000380: 9450 08bc 0ba8 1ebc cae0 15bc 2b1a 7ebc
00000390: a0be d2bc 4b0b f9bc 160b 62bc da66 96bc
000003a0: de9c a1bb 18ce 51ba c2f6 643b 5fc3 0d3c
000003b0: 9217 a43c cb70 38bb 182d 74bc 7648 78bb
000003c0: 103b 6a3c 08b7 a6bc e42b e2bc 7341 d1bc
000003d0: fa0a 5abd ca01 bebc d943 9cbc e55d b538
000003e0: 371b e83b f33a c3bb 268d ddbb 438e 00bc
000003f0: 3e86 0abc 13dc 25bc e5d2 44bc 8baf aebc
-0.008452136 -0.0084330635 -0.00845095 -0.00843831 -0.008490334 -0.008482593 -0.008473884 -0.008491304
-0.008478028 -0.008496817 -0.008487376 -0.008486897 -0.00846298 -0.008498674 -0.008485194 -0.008472621
-0.00842409 -0.008467062 -0.008424873 -0.008496974 -0.008500668 -0.0085005425 -0.008489715 -0.008503536
-0.008503033 -0.008497426 -0.008471647 -0.008493252 -0.008463672 -0.008497253 -0.008475441 -0.008439508
-0.00848209 -0.008493884 -0.008447767 -0.00847014 -0.008452123 -0.008426985 -0.0083057685 -0.008133927
-0.007984705 -0.008512883 -0.009093246 -0.008579262 -0.008347722 -0.008275208 -0.0079510035 -0.008198095
-0.008342865 -0.008183704 -0.008387804 -0.008404875 -0.008427639 -0.008433382 -0.008490246 -0.008489865
-0.008502534 -0.008499043 -0.008470076 -0.008423284 -0.008483548 -0.008502561 -0.008423649 -0.008330352
-0.0075366674 -0.0067383302 -0.007566893 -0.008654536 -0.008505541 -0.009096752 -0.009882007 -0.01236144
-0.009501865 -0.0049831583 -0.004193922 -0.0056897425 -0.0076500378 -0.0071812766 -0.0075368313 -0.0083331885
-0.008549268 -0.008521182 -0.008456849 -0.008439636 -0.008459043 -0.0084804185 -0.008560827 -0.008500603
-0.008460193 -0.010042749 -0.009938351 -0.009959541 -0.007811827 -0.005025548 -0.0057879835 -0.008324536
-0.014920667 -0.013361847 -0.016405897 -0.020928659 -0.008077328 0.0014403942 0.008339392 -0.0044029714
-0.012386774 -0.009850384 -0.0039939852 -0.0022870253 -0.005393248 -0.008422935 -0.008980943 -0.008456906
-0.00846238 -0.008441709 -0.008669939 -0.0088012805 -0.009627121 -0.011009744 -0.0099359965 -0.0062494664
-0.0071367524 -0.0055839834 -0.0050921817 -0.0034462162 -0.009213649 0.0017476617 0.017945455 0.0028110107
0.0041256496 0.017589886 0.00551736 0.0048333267 -0.0029384454 -0.006133274 -0.005510495 -0.005676215
-0.004765342 -0.0057460675 -0.006569072 -0.007893569 -0.0084706815 -0.008462482 -0.00857276 -0.008613818
-0.009749111 -0.014165349 -0.013004968 -0.012129317 -0.013214954 -0.016554384 0.0005934855 0.027803484
0.036851026 0.037503663 0.040880997 0.02004476 0.012329045 0.029452175 0.029506616 0.021163747
0.0132992705 0.024126925 -0.0017674322 -0.002003066 -0.0019596468 -1.7549453e-05 -0.0059020165 -0.007848307
-0.008482403 -0.008442685 -0.008222514 -0.009066701 -0.0140590025 -0.018472428 -0.017036466 -0.013544184
-0.018810812 -0.020107433 0.00011048949 0.002123787 0.01954859 0.0407723 0.037752856 0.06930141
0.020196512 0.015278758 -0.005337461 0.0040774886 -0.0040506837 -0.0030563576 -0.016254997 -0.0101715345
-0.0049549937 -0.006972111 -0.011866419 -0.008552158 -0.008472385 -0.009006065 -0.008370241 -0.010882012
-0.020452352 -0.025218433 -0.023315873 -0.0266821 -0.0062817475 -0.016111275 -0.0039068977 0.0054987995
0.016764725 0.02682302 0.009345558 0.041640192 0.0113664055 -0.010353203 -0.02734373 -0.038433507
-0.043681365 -0.020148247 -0.013679928 -0.0051040794 0.00056152046 -0.003616831 -0.010286114 -0.008422577
-0.008319993 -0.009683619 -0.009147832 -0.015509169 -0.025725663 -0.030400893 -0.013796588 -0.01835959
-0.00493203 -0.00080034276 0.0034937118 0.008652537 0.02003077 -0.0028143402 -0.014903329 -0.0037884987
0.014296308 -0.020350948 -0.02760882 -0.025543904 -0.053233124 -0.023194212 -0.019075321 8.648242e-05
0.0070833224 -0.005957955 -0.006761211 -0.007846418 -0.008454857 -0.010123271 -0.012013172 -0.02132394

layer1.bias f4 [256]
00000000: 18ec 0a3c 3005 4b3b c799 97b9 25d7 67b9
00000010: f2d5 9ab7 702a 8e39 e328 b639 e437 86ba
00000020: 8b9e 4fb8 dbfa fd39 0120 aeb8 f969 6db5
00000030: 67e8 17ba 65ce 9638 a1b9 92b8 d23e bfbb
00000040: 09ba 54b9 f45b a8ba f375 903b 9091 c737
00000050: 116b c239 fa2d 1fba 57e2 c9b7 a84b c137
00000060: 8a47 ac37 78ad 9fba 557e 20bb 5555 cbb9
00000070: f6f8 ebb8 6a4a 6eb7 ed33 25b8 1fea 4f3b
00000080: 4b37 47b9 ccc9 4037 9a9e bd39 0f80 d237
00000090: 7a1e 52b9 e77c 1dbb 5029 0eb8 182a 64b9
000000a0: b83d e53a 4124 4db7 1f00 093b 6f47 67b7
000000b0: 3971 1c3b 179f 2c39 65df f837 bbad 173c
000000c0: 5358 1f37 6948 b2bb bcbd 0e3a 86d9 0138
000000d0: 1e77 04b8 b4f6 84b9 60ee d0bb 624e 853a
000000e0: 2838 a337 f74b d13a 4604 98bb 4bad 133b
000000f0: 58cc d1ba e67d 8ab8 408d df39 be6c f7b5
00000100: b5e2 1bb9 a6b7 b3b9 db1f 78bb 233b c637
00000110: 664a c5ba db9d a13b ac23 82bb 5d55 cdb5
00000120: 1608 ae39 efc8 b437 f2af 0ebb c4f6 18bb
00000130: cad7 3bb9 7cb4 8937 b4a0 5ebb a34b 15b8
00000140: be3f 7fb7 2337 71ba ea06 bfbb 61c6 293a
00000150: ea3f bdba afad f1b9 c8a9 e53a 971e edb8
00000160: 8753 0abb 14d6 0a3b 416f bfba 2717 05bc
00000170: 3cd3 05b9 4ad4 afba 7251 7b3a 603c 1e38
00000180: a271 17ba 3b97 16bb 4a7a f0b7 a999 d2b6
00000190: 8d25 5438 65d0 e1b7 60fc 93b7 08a2 293a
000001a0: 07a4 20b6 e954 7fb9 bb01 2337 01fb a939
000001b0: 9d2e 1cb7 3efd 1438 d627 15b7 3d74 a3b9
000001c0: 8929 feba e6b8 353a e4b9 c5ba 7fe6 06ba
000001d0: 89f6 6bb5 d63b 403c 5632 4036 307f dbba
000001e0: cdd7 edb7 0018 87bb 2a87 88b7 3350 a237
000001f0: 8fa0 eeb7 dd0e a2b9 3389 f43b c8ae 9537
00000200: 36c4 edb9 0760 8fbb 9840 cab7 0a18 a237
00000210: 775f eebb 1fa0 a03b 10fb 3ab9 75b0 d4b8
00000220: bcf1 74ba b4a8 cab8 e27a d8b7 6100 1f39
00000230: 793c 78ba 956d 7cb7 031c c136 169a 20bb
00000240: 07e5 6db8 0196 8939 e402 ae3b b134 7fb9
00000250: 658f 473b f78c c437 ddbd 4cbb 6044 e5b3
00000260: fb20 dfb9 2108 c0b8 7a37 a737 9054 c837
00000270: e121 3bbb 8c67 19b9 91b0 743a e3cf 8537
00000280: 8bed 80ba 00fa 07b9 0318 a7b9 e093 e237
00000290: 7006 55ba f146 9b3b 6a72 1b38 4446 e1b7
000002a0: abc4 7d34 1043 a2ba ce7d 2c3b 93f9 2bba
000002b0: 8bb3 00b9 8c49 93ba 6fe5 213a afb5 71b9
000002c0: d4e9 91b9 a3cb 8b37 3d75 133b fa40 a73b
000002d0: 5c16 efba 283a f439 17a5 0bb8 f858 0cb8
000002e0: 804a 1e39 e5a7 c138 4298 6237 cd95 3c37
000002f0: 6d36 f0ba 86a7 f7ba b2b6 41b8 3538 953a
00000300: 19a6 bfb6 4b60 983b 2c77 1e3a 2cae 0ab8
00000310: b478 1cb8 794e 43b7 69c3 c0b6 a65a 4dbb
00000320: b637 9e3b 5a28 a0bb d4af 9cb7 fb16 aeb8
00000330: 9d24 e5b6 9c0d 033a 1856 d8ba 375b e7b7
00000340: ca8b eeb6 bac6 51bb 91e3 7eb7 4817 7c36
00000350: f208 a4b8 2177 b2b7 7adb f63a 7370 9ab9
00000360: 8a3d a7b7 f627 36b8 1426 64bb b96f bbb9
00000370: b630 deb8 9faf 2937 c546 7235 e4c2 fe37
00000380: 36d2 d3b9 1074 3236 40f8 df37 b2f2 f5bb
00000390: 170e 79b9 e7dd 32ba cfb6 253b 376d 5fbb
000003a0: 01fc c6b7 b573 2136 bef7 bab7 fb55 a9ba
000003b0: 8f08 9bb8 a5d4 c837 6516 e4b8 2f55 a8bb
000003c0: a767 d8b9 6864 4cb7 236f 3136 1f8a 01b8
000003d0: 5a2f c7ba 672c 113b ba27 61b7 e1e0 1fba
000003e0: 2067 6cba 4ddf 0ebc 106f d1b7 73a8 2137
000003f0: 0708 6d38 6e2b 33bb cfb0 e3b8 e4cb bebb
0.008479141 0.0030978434 -0.00028915537 -0.00022110024 -1.8457857e-05 0.0002711597 0.00034744208 -0.0010240045
-4.95003e-05 0.00048442822 -8.302928e-05 -8.844359e-07 -0.00057948235 7.191001e-05 -6.9963986e-05 -0.005836346
-0.00020287199 -0.0012844787 0.004408592 2.3790431e-05 0.00037082334 -0.00060722197 -2.4066465e-05 2.3042623e-05
2.053731e-05 -0.0012182435 -0.0024489362 -0.00038782755 -0.00011252046 -1.4203231e-05 -3.9387425e-05 0.003172524
-0.00018998717 1.1491076e-05 0.00036167057 2.5093583e-05 -0.00020038514 -0.0024030746 -3.3893913e-05 -0.00021759456
0.0017489707 -1.2227393e-05 0.0020904613 -1.3785305e-05 0.0023871197 0.00016462464 2.966793e-05 0.009257729
9.497703e-06 -0.005440761 0.0005445143 3.095858e-05 -3.158219e-05 -0.0002536081 -0.0063760728 0.0010170455
1.9457264e-05 0.0015968074 -0.0046391813 0.002253371 -0.0016006334 -6.603803e-05 0.00042639114 -1.8434582e-06
-0.00014866407 -0.0003427837 -0.0037860784 2.3630977e-05 -0.001505208 0.004932148 -0.0039715376 -1.5298534e-06
0.0003319389 2.155124e-05 -0.0021772352 -0.0023340443 -0.00017914097 1.6415717e-05 -0.0033970298 -3.559481e-05
-1.5214026e-05 -0.00092016364 -0.0058296816 0.0006476399 -0.0014438604 -0.00046096506 0.0017521912 -0.000113067385
-0.0021106915 0.002118473 -0.00146053 -0.008123196 -0.0001276256 -0.0013414708 0.00095870264 3.7726364e-05
-0.00057771255 -0.0022978324 -2.8667175e-05 -6.276376e-06 5.057971e-05 -2.6919131e-05 -1.7641287e-05 0.0006470983
-2.3937334e-06 -0.00024350327 9.71596e-06 0.00032421204 -9.309178e-06 3.55218e-05 -8.890367e-06 -0.00031176387
-0.001939104 0.0006932154 -0.0015085307 -0.0005146041 -8.790308e-07 0.011733016 2.863953e-06 -0.0016746279
-2.8353092e-05 -0.004122734 -1.6275404e-05 1.934925e-05 -2.8446577e-05 -0.00030910122 0.0074626445 1.7843573e-05
-0.0004535035 -0.004375461 -2.4110355e-05 1.9323099e-05 -0.007274564 0.0049019004 -0.0001783187 -0.000101418154
-0.00093438826 -9.663534e-05 -2.5806428e-05 0.00015163563 -0.00094694603 -1.50458845e-05 5.755109e-06 -0.0024505905
-5.67185e-05 0.00026242438 0.005310403 -0.00024338324 0.003045046 2.3430663e-05 -0.0031241097 -1.0676081e-07
-0.00042558447 -9.1567876e-05 1.9933785e-05 2.3881235e-05 -0.002855413 -0.00014629791 0.0009334172 1.595164e-05
-0.0009836418 -0.00012967736 -0.00031870612 2.701016e-05 -0.00081262644 0.0047386815 3.7061436e-05 -2.685481e-05
2.3634009e-07 -0.0012379605 0.0026320103 -0.0006560322 -0.00012273916 -0.0011237129 0.0006175851 -0.00023051233
-0.0002783077 1.6664917e-05 0.00225003 0.0051041814 -0.0018240917 0.00046582636 -3.3293934e-05 -3.346146e-05
0.00015095808 9.23423e-05 1.35061e-05 1.1240551e-05 -0.0018326767 -0.001889453 -4.6184934e-05 0.0011384549
-5.71158e-06 0.004650151 0.00060449797 -3.3063974e-05 -3.7305712e-05 -1.1641177e-05 -5.7447946e-06 -0.0031334548
0.0048284186 -0.004887623 -1.8678526e-05 -8.301247e-05 -6.828994e-06 0.00049992814 -0.001650515 -2.7579821e-05
-7.1092263e-06 -0.003200932 -1.5192564e-05 3.7564478e-06 -7.8217956e-05 -2.1274727e-05 0.001883372 -0.0002945695
-1.9936608e-05 -4.3429398e-05 -0.0034812735 -0.0003575066 -0.00010594858 1.0114075e-05 9.025501e-07 3.0369913e-05
-0.00040401676 2.6591624e-06 2.6699272e-05 -0.007505738 -0.0002375174 -0.0006823227 0.0025285964 -0.0034092197
-2.3720788e-05 2.405822e-06 -2.2288292e-05 -0.0012919301 -7.39257e-05 2.3940878e-05 -0.000108760585 -0.005137108
-0.00041275957 -1.2182725e-05 2.6439745e-06 -3.0884632e-05 -0.0015196607 0.002215171 -1.3420295e-05 -0.0006098878
-0.00090180524 -0.008720231 -2.4966459e-05 9.635568e-06 5.651268e-05 -0.0027339119 -0.00010857137 -0.0058226455

layer2.weight f4 [128, 256]
00000000: 04bb 2e3d 663c e4bc cec8 383a 9d70 f03a
00000010: 0f0c eb36 4615 173b b292 b03b a1e9 5eba
00000020: d8af ef38 8e82 73bc 3599 ab39 854f 2c38
00000030: 82bc a33a 6204 e1ba 26e7 75b8 74ea 64bd
00000040: 9f17 87ba 7133 4dbd b973 cb3c 3951 6b38
00000050: 1c07 ca3c 9800 4e3d 2df0 6038 2a44 bb37
00000060: ab24 16b7 bea8 d5ba 8029 453b 1e27 2eba
00000070: 474c b4b9 06c9 71b8 1961 0338 0826 35bc
00000080: 9a43 61b9 f54f dd39 0877 6e3c 4e52 07b7
00000090: e140 c43a cc4f 4cbd 954f 3338 145e a9b5
000000a0: b73f b03c a677 7fb8 cc38 5fbc c825 3338
000000b0: 5edc 4fbc 28dc dd3c 96a5 58b8 c39f 973c
000000c0: 53ed f736 e6c1 4a3d 2dbc 473c a626 0438
000000d0: 7b41 1f38 caae 893c 5b21 053d 30d9 0bbd
000000e0: 5872 84b7 f700 133d 11db 49bd 7fa4 d0bd
000000f0: 92ed 90bd e591 8b3a 5d14 b03c fa1f 92b7
00000100: 5be3 58ba a853 cdbb 294b 3b3d cd68 3fb7
00000110: c886 98bd 475e b33c 23b7 2fbc 52c0 5438
00000120: 1a27 4bbc 08f6 e337 f182 b33b 6217 02be
00000130: fbeb 2b3a a833 47b8 e41c 423e dbe4 9eb8
00000140: 0a4f 51b8 8adc 98bc b850 883d b524 84bd
00000150: d988 d6bb 4cb1 003a ade8 1b3d abed 063a
00000160: 1d7e a93b f3c0 853c a9cc 2ebd d398 a93c
00000170: 30b2 b8bb c643 153b 4c38 9f3b a8df 0f3c
00000180: 2faf 083b 85a0 90bb 98aa b7b9 0db9 6a38
00000190: 5f3e f83a 5c28 3337 def5 d3b7 a477 36bb
000001a0: 5a6f 05b8 5c7c 6dba f289 2e37 918a 82bb
000001b0: a75e 0438 6a11 0bba 7561 ebb7 4893 3fba
000001c0: edae 4c3b 33b6 1f3d 3c15 5ebd 5c93 f3bc
000001d0: 8751 1339 e639 39be ee67 af38 92ed 3b3d
000001e0: 50a6 8cb8 78c7 233e 47fa e7b7 18e5 5537
000001f0: 082b 43b8 cbf7 e9b8 3b71 9f3c eb57 7838
00000200: 2473 aa3a 5426 083c a0d4 5b38 3ad6 b5b7
00000210: 9782 ad3d 56e4 303e d99c 0a38 d946 adb8
00000220: 4092 04bb b3f2 273a 2ebe 4038 7bb6 cbba
00000230: 1a90 c13d 96e2 3fb8 07e3 cab7 8abe ae3c
00000240: e313 6239 f92f 533c 9be3 583d d2bd 4639
00000250: e4f6 d0bb a5f2 7ab8 e3d1 c33d 0dd3 26b8
00000260: 16b4 4dba 0737 b8b9 b497 5bb8 b0af 9137
00000270: 8a92 223b 05ef 04ba 266b 6fba 8280 8d36
00000280: 3ffa 033b 40c7 b83a 1af2 b4ba 71bf dc37
00000290: 5a52 08bc 5633 313d df3b c737 0460 0c38
000002a0: 2c42 b8b7 f991 9bbb f6f5 123e aad8 8fba
000002b0: 49b4 3038 6ac2 83bd b0c7 b2bc 3b51 4f3a
000002c0: 9f70 05bb f15e 3537 2572 3a3d 5acd 203d
000002d0: cbbd c4bc 0aa9 a13c 4b90 183a 6cbc 55b8
000002e0: daa0 3fb9 d828 903a 0e82 2fb7 5d45 5fb8
000002f0: 4982 7f3d fe0f 073e 700b a0b7 9e0b 023b
00000300: ca67 c837 276a 903c fbd9 40bd 7d6f 9cb8
00000310: 07aa abb7 749b 453b 20e0 e3b5 24a5 4abd
00000320: 2766 a83c c736 313c acc8 61b8 e334 2a39
00000330: 1f72 8eb8 49df 4a3c 2ef5 483c c337 1637
00000340: 12d0 a4bc b2eb 80bc 91e3 8ab8 714a bc39
00000350: 26b9 0c3a dc90 91b8 f851 13bd 5dbe 7bba
00000360: 3c26 5e39 cee2 1ab8 803d 71bd 0ea5 0eba
00000370: 6951 b9b9 eb1b e237 ba42 0f38 8f4b aab7
00000380: bfee 423a fa87 d238 a530 0438 ea0c bd3c
00000390: a212 ff3a 26c7 39bc 9641 1c3e 0e3a f4bc
000003a0: 7190 0b38 f588 e4b7 b859 133b a70b 283c
000003b0: 0074 c139 6b4c 22bd af56 12b9 0524 763c
000003c0: 8022 82b9 7792 a3ba 7e22 87b8 846f 3db7
000003d0: a89a e5bb 521e 72bd 765c b2b8 447f 9dba
000003e0: d3b3 023c 2391 3d3e 790f 0538 c1d7 84b8
000003f0: 537f e3bc 33ac bf3c a373 f339 8f96 68be
0.04265882 -0.027860831 0.0007048965 0.0018344108 7.0049496e-06 0.0023053451 0.005388581 -0.00085034413
0.000114291615 -0.01486267 0.0003272981 4.1082054e-05 0.0012492093 -0.0017167444 -5.8627826e-05 -0.055887654
-0.0010306722 -0.050097886 0.024835454 5.610401e-05 0.024661593 0.050293535 5.3629443e-05 2.2323879e-05
-8.949234e-06 -0.00163009 0.003008455 -0.0006643402 -0.00034389106 -5.7646095e-05 3.1323263e-05 -0.011056431
-0.00021482856 0.00042211977 0.014554746 -8.06579e-06 0.0014972949 -0.049880788 4.2751042e-05 -1.2618862e-06
0.021514757 -6.090817e-05 -0.013624381 4.2712112e-05 -0.012686817 0.027082518 -5.1652627e-05 0.018508798
7.388802e-06 0.049501322 0.012190861 3.1507247e-05 3.7969538e-05 0.016806979 0.032502513 -0.034142673
-1.5788872e-05 0.035889592 -0.049281184 -0.10187625 -0.07076563 0.0010648338 0.021494085 -1.7419447e-05
-0.00082736247 -0.006266076 0.045725975 -1.1408888e-05 -0.074475825 0.02189554 -0.010724816 5.072385e-05
-0.012399459 2.7175076e-05 0.005478256 -0.12704232 0.0006558296 -4.7493406e-05 0.18956333 -7.576655e-05
-4.9903094e-05 -0.018659849 0.06656021 -0.06452314 -0.006547075 0.0004909232 0.038063694 0.00051471096
0.0051725046 0.016327357 -0.042675648 0.020702755 -0.005636476 0.0022775992 0.004859006 0.008781351
0.002085637 -0.0044136667 -0.00035031582 5.596229e-05 0.0018939486 1.0678628e-05 -2.5267651e-05 -0.0027842307
-3.1813375e-05 -0.00090593635 1.0403326e-05 -0.0039838036 3.1559404e-05 -0.0005305024 -2.8059565e-05 -0.00073080184
0.0031232194 0.038992118 -0.05421947 -0.029733352 0.00014049384 -0.18088493 8.364009e-05 0.04588086
-6.706698e-05 0.1599406 -2.765389e-05 1.2749129e-05 -4.65317e-05 -0.00011156461 0.019463172 5.9209688e-05
0.0013004285 0.008309919 5.241169e-05 -2.1676638e-05 0.08472174 0.17274603 3.304784e-05 -8.262479e-05
-0.0020228773 0.00064067094 4.5953486e-05 -0.0015542054 0.09451313 -4.5748973e-05 -2.4185994e-05 0.02133109
0.00021560448 0.012889856 0.052951436 0.00018953465 -0.006377088 -5.9830625e-05 0.09561517 -3.977404e-05
-0.0007846964 -0.00035136213 -5.2354953e-05 1.7367158e-05 0.0024806582 -0.0005071017 -0.0009133093 4.2170877e-06
0.0020138172 0.0014097467 -0.0013805062 2.631519e-05 -0.008320415 0.04326185 2.3750528e-05 3.3468023e-05
-2.1965323e-05 -0.004747626 0.14351639 -0.0010974605 4.2129574e-05 -0.06433566 -0.021823734 0.00079085276
-0.0020361317 1.0810546e-05 0.045519013 0.03925834 -0.024016282 0.019733924 0.0005819841 -5.095864e-05
-0.00018275101 0.00109985 -1.0461094e-05 -5.3231943e-05 0.06238011 0.13189694 -1.9078812e-05 0.001984335
2.3890188e-05 0.017628742 -0.047082882 -7.459426e-05 -2.0463964e-05 0.0030152472 -1.6978047e-06 -0.049473897
0.020556523 0.010816283 -5.383107e-05 0.00016232165 -6.792344e-05 0.012382337 0.012265487 8.95368e-06
-0.020118747 -0.015737388 -6.62274e-05 0.00035913617 0.00053681654 -6.941121e-05 -0.035966843 -0.00096032565
0.00021185813 -3.692769e-05 -0.05889654 -0.0005441465 -0.00035346605 2.69543e-05 3.4156e-05 -2.0300764e-05
0.00074360886 0.00010038908 3.1516556e-05 0.023077447 0.0019460509 -0.011338985 0.15259394 -0.029812839
3.3274704e-05 -2.7243494e-05 0.0022483896 0.010256684 0.00036898255 -0.03962366 -0.00013955937 0.015023236
-0.00024821237 -0.0012479563 -6.443726e-05 -1.1291242e-05 -0.007006962 -0.059110947 -8.5049236e-05 -0.0012016078
0.007977444 0.18512397 3.172408e-05 -6.334438e-05 -0.027770674 0.02339754 0.00046434728 -0.22713684

layer2.bias f4 [128]
00000000: 9a3e e93b d439 6e3d f851 503b 664c cebb
00000010: 9333 2b3c 9812 be3b 852f 433a 6306 0bbb
00000020: 96df e839 9c49 ac3c b3d6 2339 aa8a 303d
00000030: 883f 7d3c f659 8e3c 94d1 6c3c 31cf 4e3a
00000040: 531e 46bb c2e7 ec3c 7e84 033d 2a96 773b
00000050: 086f fd3b 7f03 cf38 c663 a33b c7fe 433c
00000060: 8c9e 37b7 321f 793d f3f2 c63b 4048 fabb
00000070: 64ad a637 0043 473a 53f1 753a 1a89 bfb7
00000080: b723 e03c 74f5 593a cf33 cf3c c019 3a3c
00000090: f0dd 44b8 8f5c 5abb 3830 203b 026a 7f3b
000000a0: 7003 9dbb 1ace a03b 8913 e6b6 c161 493a
000000b0: 3702 51b9 964e ab3b 8711 c0ba b727 433b
000000c0: 9465 69b8 9b75 9138 babd 8f39 9530 0638
000000d0: f5e6 1538 d997 5538 c446 833a 4a4e c73a
000000e0: 7f59 cb3c 6528 9d3b 5191 523b 052d 063d
000000f0: b49c 9c3b a108 75b8 4961 66b8 2828 06b8
00000100: 50d4 9db8 fdfc 923b af90 0d38 d879 20bb
00000110: b7f5 9bbb e369 ce3c 57dd 2e3b 6dac 4239
00000120: 3246 b7bb d14f 8b3b ad18 ee3b d28f ef3c
00000130: e657 c2bb d19b b83b cd25 5c3c d2fc 1abb
00000140: aa75 63bc c2d4 bf3b 82e1 b239 d473 03b7
00000150: ef8f 1ebc aceb 183b 2916 54bc 7eab 47b8
00000160: 0908 7a3b 06fa 933c da44 a238 da0e ac3b
00000170: 0ad0 363d c7fc 8f3b 495a 2bba 4e28 85b6
00000180: b661 df3c 4487 a93c f80e 3839 ca6b 933b
00000190: 3b22 0abc 7d5f 1a3c f191 473a e3b2 d03a
000001a0: 7346 ac3a 9087 8e3c 3cb7 50bb 0522 0fbc
000001b0: 2946 8e3b 6b28 6d3b 651c 0b3d 064c e23b
000001c0: b3d7 883c fc31 cb3b 710a 963b ef3d 84bb
000001d0: 90b4 f9bb f89e cbb7 9601 64bb be32 673c
000001e0: b03f 3a3c 328b c639 10c0 86b8 0808 413a
000001f0: e913 b73c 04ac 193c f1b3 c43a 613c fd3b
0.0071180584 0.058160618 0.0031787138 -0.0062957285 0.010449308 0.0058005564 0.00074457406 -0.0021213524
0.00044417073 0.021031193 0.00015624873 0.04310099 0.015457042 0.017376881 0.014454264 0.00078891503
-0.0030230477 0.028919104 0.032108776 0.0037778714 0.007734183 9.8711804e-05 0.004986259 0.011962599
-1.0944565e-05 0.060820766 0.0060714423 -0.0076380074 1.9869483e-05 0.00076012313 0.00093819684 -2.2832817e-05
0.02736078 0.00083144684 0.025293259 0.011358678 -4.6936737e-05 -0.003331933 0.0024442803 0.0038973098
-0.0047916695 0.0049073817 -6.8568083e-06 0.0007682108 -0.00019932618 0.005227874 -0.0014653661 0.002977831
-5.564613e-05 6.9360445e-05 0.00027416443 3.1993335e-05 3.5739464e-05 5.0924576e-05 0.0010015597 0.0015205827
0.024822949 0.004796075 0.0032130072 0.032757778 0.0047794227 -5.8420588e-05 -5.4926877e-05 -3.1985488e-05
-7.52589e-05 0.004485725 3.3751767e-05 -0.0024486687 -0.004759516 0.025196975 0.0026682222 0.00018565515
-0.0055930847 0.004251458 0.007266125 0.029243384 -0.0059308885 0.005633809 0.013436747 -0.0023649228
-0.013883034 0.00585422 0.00034118822 -7.835177e-06 -0.009677871 0.002333383 -0.0129447365 -4.760501e-05
0.0038151762 0.018063556 7.7375866e-05 0.005250794 0.044631995 0.004394147 -0.0006536586 -3.968401e-06
0.027268272 0.020694382 0.00017553184 0.0044989334 -0.008431013 0.00942218 0.00076129945 0.0015922453
0.0013143554 0.017398626 -0.0031847497 -0.008736138 0.00434186 0.003618742 0.033962626 0.0069060354
0.016704416 0.006201027 0.0045788814 -0.0040357034 -0.0076204017 -2.4273511e-05 -0.0034790984 0.014111219
0.011367723 0.00037869212 -6.425392e-05 0.00073635625 0.022348361 0.009379391 0.001500724 0.007728145

layer3.weight f4 [64, 128]
00000000: e47f bbbc 3ec8 9bbc da2d 413d f0b0 67bb
00000010: 2497 1bba cd40 75bc 766c 98ba a564 f43c
00000020: 657e 213a bc94 4bbc fff4 793c fca6 5b3c
00000030: b73c 663c f13d a13b acbb 0c3d 69ac 943a
00000040: 5531 113c 3fb4 263c 6ac3 993d f0b1 de3b
00000050: 6024 7fbb e895 ca3b fc03 d23c d5a9 ad3c
00000060: 1306 8a39 44ca a3bd b05a 1abc 979b 7e3d
00000070: 06c1 1037 e63a e8b9 24f8 b53d 170d a438
00000080: bcdf 94bc 451d dbbb 51c5 bcbc aefc cf3b
00000090: 686f 86b8 0c87 ef3b ddbb e8bb 81ab 3e3d
000000a0: 5b93 3f3c bf77 5bbd c3cd 183a 7e82 a03b
000000b0: 88a2 ff3a ede4 e13c a957 a0bb 268e d73c
000000c0: 090c 2b3c f595 c33b c9f7 82b9 60b7 88b8
000000d0: e87d 89b7 fde2 33b8 50f9 9039 4187 193d
000000e0: 80ea 8dbc 34b5 7fbc 404b 43bb 6aee 8b3d
000000f0: 1fbb 1d3d a7d2 56ba 2f08 c3b8 e8b8 8ab8
00000100: 52f6 10b8 474c 2f3a fcaa 9c38 c51b 58bb
00000110: 7353 1a3d e1c4 3d3d c1d7 c33c fba6 103a
00000120: 9ab2 eeba 7596 14bd 0359 37bc 3e66 9ebc
00000130: 1a04 e4bb 8841 aa3b f7e7 cebc c5c1 f43a
00000140: d5a8 72bb b72b 1cbc febe 5e3d 7df6 8637
00000150: 38bc 61bc 50bf 2ebc d8f8 21bc 666b 9638
00000160: da3f 563c 70f7 fe3c 9d20 92b8 5274 c03d
00000170: f674 903d 3772 95bd bc02 4aba 9488 a5b8
00000180: a399 09bc e4e1 e4bc 7057 27b9 3ec6 9ab9
00000190: bd02 81bc 7c47 3dbc ed12 0dba b9b9 f53b
000001a0: 5f1e 2bbb 4f71 953d dbd7 013c 2e8b 00bb
000001b0: 970f c3bb 2438 7f3d bcb7 73bc edf3 9b3c
000001c0: 3046 38bc af2f 8ebb 50ba 803d 33e0 3ebc
000001d0: da33 013e 42fd 4337 796b 723b b295 5939
000001e0: 1465 8f3a 0161 0eb9 daf4 bf38 348e 913b
000001f0: cf34 20bc f508 4fbc 69d5 a4bb 6c0b afbb
00000200: 0020 0e3d 525d debc 8253 f2bb db5d cdbb
00000210: 18ea bc3d 579a 683d ef1a 333b 5caa 7f3a
00000220: 1340 2b3b cf51 003e ba3f e0bb eb4f 04bc
00000230: ea66 c4bb 0a33 4abc 5685 433c da1f 3eb8
00000240: 3219 133d 9f98 3dbd 2a76 1fbe b50b c13c
00000250: 2ee3 02bc 85f3 e03a 8599 9c3a 62c0 9b3c
00000260: 4723 46b9 7533 5a3e a9df e03c 9872 0f3d
00000270: b214 97b8 9456 9ebb 12d5 8abd 7ed4 7c38
00000280: 40ff 563d 5224 3d3c aaad e73c 1740 753c
00000290: 07be 8138 829b ab3c 92ae 2b3c 42b5 21bc
000002a0: 67f6 0d3d 4897 263e 660e e238 58ca 283b
000002b0: 39c5 84ba 4e2b 29bd 4f94 8d3c 7aeb 8ebb
000002c0: 756d 133d 79e5 813d ca16 453a 6c1f e239
000002d0: 878b d138 fa00 beb8 da62 003c 0019 003d
000002e0: e381 ebbc 5b5c b53d f5a7 45bc 7fb9 24be
000002f0: 6a35 603c 09b1 bf3a 5418 fbb5 5843 d7b8
00000300: cf36 8cb7 0a3b 943a 2eb8 8836 2058 813c
00000310: 5826 58bb 0685 c4bd 234c 11bc df57 2eba
00000320: 89fd 39bc bee1 f13d 7fed 5bbc 8e9c b0bc
00000330: 690b 69bc a287 d73d f7ad 6d3d fc1e 9d3c
00000340: e7c7 bcbc da40 b33d 2f0c 8f3d 2e54 5d37
00000350: a5e8 30bd 13dc 6c3d d5b5 8dbd 4245 893b
00000360: 97d3 8a3c 1c66 f2bc 168c 9fb8 d865 a13c
00000370: 9c76 3fbd 0e20 4f3e 84d0 48bb 9e27 28b8
00000380: cc65 c2bc b9eb 433c fcb3 c33a 6e2f a03d
00000390: 7e42 9d3d 9e95 873d a196 9a3a 0e6e 63ba
000003a0: 47b3 7e3b 1f4e b5bc 01c3 853d ce0e 77bc
000003b0: 174a 133b 158c a6bb 155f 63bb 820b 5fbc
000003c0: 4ede aebb 4695 61b9 4e27 7bbc 3b44 b43d
000003d0: 55c7 77bd ea94 7f38 65f2 c23c cbbb b9bd
000003e0: 2a36 033c 3c9d e6b9 df70 94b8 21f8 13bb
000003f0: c680 a4bb 0d42 9b3d ca23 883c 70cd 853c
-0.022888131 -0.019016381 0.047162868 -0.0035353266 -0.00059353025 -0.014969063 -0.0011629004 0.029833147
0.0006160497 -0.012425598 0.0152561655 0.013406511 0.0140525615 0.004920714 0.034358665 0.0011342886
0.008861859 0.01017481 0.075079754 0.006796114 -0.0038931593 0.006182421 0.025636666 0.021199146
0.00026325937 -0.079975635 -0.009421036 0.0621601 8.628011e-06 -0.0004429437 0.0888522 7.8225676e-05
-0.018173091 -0.006686839 -0.023043307 0.0063472604 -6.410369e-05 0.0073098 -0.007102473 0.046550278
0.011692847 -0.053580996 0.0005829001 0.0048983684 0.0019503394 0.02757498 -0.0048932624 0.026312899
0.010439881 0.005968804 -0.00024980147 -6.5191416e-05 -1.6390302e-05 -4.2888325e-05 0.00027651573 0.037482504
-0.017323732 -0.015607167 -0.0029799491 0.06832583 0.03850853 -0.0008194842 -9.299849e-05 -6.614794e-05
-3.456168e-05 0.00066870864 7.470508e-05 -0.0032975536 0.03767724 0.046330336 0.02390659 0.0005518046
-0.0018211186 -0.0362763 -0.011190656 -0.019335862 -0.0069584968 0.0051958 -0.025257094 0.001867347
-0.0037026901 -0.009531907 0.054381363 1.6088825e-05 -0.013777785 -0.01066573 -0.009885989 7.172562e-05
0.013076747 0.031123847 -6.967897e-05 0.09397186 0.070535585 -0.072971754 -0.0007706096 -7.893253e-05
-0.008398446 -0.027939744 -0.00015958934 -0.0002952087 -0.015748376 -0.011552688 -0.00053815433 0.0074989465
-0.0026110632 0.072970025 0.007924999 -0.0019614208 -0.005952786 0.0623094 -0.014875349 0.019037211
-0.011247203 -0.0043391804 0.06285536 -0.011650133 0.12617436 1.1681872e-05 0.0036990328 0.00020750499
0.0010940158 -0.00013578312 9.153197e-05 0.0044420008 -0.009778216 -0.012636413 -0.0050303233 -0.0053419378
0.034698486 -0.027144108 -0.007395209 -0.006267292 0.09224337 0.056787815 0.0027329286 0.00097528636
0.002613072 0.12531208 -0.0068435343 -0.008075695 -0.0059937136 -0.01234127 0.011933645 -4.5329194e-05
0.0359127 -0.04628813 -0.1557242 0.023565153 -0.007988734 0.0017162418 0.0011947608 0.019012634
-0.00018895893 0.21308692 0.0274504 0.035021394 -7.204096e-05 -0.0048320983 -0.06778921 6.027938e-05
0.05248952 0.011544304 0.028281052 0.0149688935 6.186595e-05 0.020948175 0.0104786325 -0.009869875
0.034658816 0.16268647 0.00010779202 0.0025755372 -0.0010129578 -0.041301064 0.017282633 -0.004361567
0.03599306 0.063425966 0.00075183494 0.0004312949 9.9918856e-05 -9.060088e-05 0.007836068 0.03127384
-0.028748458 0.08855506 -0.01206397 -0.16086386 0.01368461 0.0014624904 -1.8708038e-06 -0.00010264543
-1.6714823e-05 0.0011309099 4.074557e-06 0.015789092 -0.003298184 -0.09595685 -0.00886825 -0.0006650667
-0.011351951 0.11810635 -0.013423323 -0.021559026 -0.014223912 0.10523917 0.058027234 0.019179814
-0.02304454 0.08752604 0.06984746 1.3192226e-05 -0.043190617 0.057827067 -0.06919447 0.0041891644
0.016946597 -0.029589705 -7.607804e-05 0.019701883 -0.046743974 0.20227072 -0.0030641863 -4.0091218e-05
-0.023730181 0.011958056 0.0014930959 0.078215465 0.07678698 0.06620334 0.0011794158 -0.0008675762
0.0038864182 -0.022131978 0.06531335 -0.015079213 0.002247458 -0.005082617 -0.0034694124 -0.0136135835
-0.0053365594 -0.00021513281 -0.015329195 0.088020764 -0.060492832 6.0935425e-05 0.023797223 -0.09069022
0.008008519 -0.00043986167 -7.078214e-05 -0.0022578316 -0.005020234 0.075809576 0.016618628 0.016333312

layer3.bias f4 [64]
00000000: 3b93 12ba d5ab 483c e625 d83b ba32 9739
00000010: ee0b 303d 5364 1fba 6e64 dab8 6964 2cbb
00000020: 84c7 d23c 388e f43b b976 6f3c 309b 5fb9
00000030: e9ce 7fb7 ea99 ab3b 232c 03b9 b17b 4f3d
00000040: a0d8 08ba e3e5 283c 516a fe3a 5b51 f133
00000050: 2133 0c38 6f5e c73c fbd2 0d3c 8c2b 84b8
00000060: 222c ab3c d51a e03a 84e1 bb3c 041b e53c
00000070: 0b9b fdba 1a29 943c e54a 703c aa75 a039
00000080: 19da d43b a4e3 a2b8 e773 303c ec50 a53c
00000090: 89e6 16ba 9e0e 8b3d 9f71 c03a 4ad1 bfb8
000000a0: 9e10 01ba 305f 063d b4d9 023b 0242 db3c
000000b0: 80e4 073c 3d73 563c 8cc5 2fbc 128e 533c
000000c0: f75b 363d 83ca ba3b e1dd 473a 328d ff3c
000000d0: e1ab a938 074f 933d 86c7 a4b7 1c1f 1c3b
000000e0: ad69 5e38 2682 933b f7f0 7c39 026e 103d
000000f0: fb7b d23c f926 d9ba bf48 d337 548f c738
-0.0005591397 0.012247999 0.0065963147 0.0002883876 0.042980127 -0.0006080318 -0.000104137565 -0.0026304966
0.025729902 0.007463243 0.014615708 -0.00021324749 -1.5247359e-05 0.005236854 -0.00012509576 0.05065507
-0.0005220268 0.0103087155 0.0019410347 1.12372355e-07 3.342622e-05 0.024337022 0.008656259 -6.302362e-05
0.020895068 0.001709784 0.022934683 0.027966984 -0.0019348575 0.018086005 0.014666294 0.00030605245
0.006495726 -7.767163e-05 0.010769821 0.020180188 -0.00057563983 0.067898974 0.0014682299 -9.146573e-05
-0.00049234356 0.03280562 0.0019966187 0.026764873 0.008294225 0.013088998 -0.010728251 0.01291229
0.0445213 0.005700411 0.000762431 0.031195257 8.090563e-05 0.07192808 -1.9643234e-05 0.0023822254
5.3027343e-05 0.004501599 0.00024122359 0.03526116 0.025693884 -0.0016567401 2.5187035e-05 9.5157564e-05

layer4.weight f4 [10, 64]
00000000: 2331 85bd 9fc0 263e ea8d abbc 7f45 b03e
00000010: fd93 3dbe c370 7abb dfab 5038 56b6 80bd
00000020: fac7 563f 838e 8cbd 42b4 32be 8211 4abc
00000030: 0126 8437 63d7 54bd 5fae 7f38 ac0d 3abd
00000040: 91e8 71bd 03de 8bbd e91b b2bd cb6a a43c
00000050: 49cd 07b9 6c50 2dbe e2df 59be 09ea 0538
00000060: f1c1 81be 18f8 8fba 5f28 7a3a 47d7 42bd
00000070: 393a a73e a9ec e3ba b636 1ebd 0ea4 7abe
00000080: 9da1 e2bc 716d a038 386f 02be 0917 0bbd
00000090: 586e f0bc 97f0 28be f105 133e 25e8 f138
000000a0: fdc7 14bc 564f 5b3b 70af a6bd 4d28 90bd
000000b0: 0c9b 90bd 21ec 25bd 7db7 f1bd 6dcf 403e
000000c0: da40 e53a 358d 21bc 10d6 06bd 668a 803d
000000d0: 53b7 8f38 064b d3bd 27f9 36b9 2865 d3bd
000000e0: 8f24 0839 a1b7 06be aa40 06bc beae f7bc
000000f0: 9c64 31bd d992 cfbc 0158 04b9 486f 9ab8
00000100: 69b7 17bd 3335 abbd 1577 553e 57a4 b7bd
00000110: b213 8c3d 1dd7 8a3e 76e1 c3b8 d3e8 883e
00000120: fa12 51be cfeb 03be 0925 bdbc d55c 4f3b
00000130: 4025 38b8 9936 d5bd ed6a 22b9 7d9b 4ebd
00000140: fc9b f63d ec31 18be 0c56 07bb 9f24 44b9
00000150: 6a3f d038 4dba f33e c497 b0bd 4535 04b9
00000160: d6ac 8b3e 0bc8 e5bb 9d63 6bbd 98bc c2bd
00000170: 5fe0 e3bd b08c 62bd d36b dfbb 8321 dabd
00000180: eea4 7bbd aef5 22b9 aa33 22bd fa89 17bc
00000190: 40a7 91bc 906e 5abe f53a ffbd 8b1d e438
000001a0: ac63 1c3f 1636 98bd e233 463e 13d7 52bd
000001b0: 11ad 0fbe 6003 733c 01b7 c23d 836a 07be
000001c0: e365 efbd dca9 d23e 3218 81bd 8031 cdbd
000001d0: 4099 a737 2d49 e2bd 81fb d9b9 2cbd f53d
000001e0: 790c ea38 0980 063e 8e01 25b9 ecd6 063e
000001f0: 0a95 30be be8c 6bbc 18b3 8738 0d01 bc38
00000200: 5357 a2bd 1cf0 5b3e ce24 57bd 1539 95be
00000210: c9fd 9dbe 9b8d 03bd c578 6fb8 4282 e0bd
00000220: 25e3 0c3f fd42 c33d c8e5 033f 8ca8 5ebc
00000230: 6811 00b8 f8fc d93d c12d deb8 55e4 113e
00000240: 9dd1 fd3d 90bf 313d 6f13 b63e 21a0 8bbb
00000250: 7e7d fb38 13ed 333d 4dda 0abe e387 b8b8
00000260: 37d5 013e e91b be39 83f0 d3bc 8e74 a9bd
00000270: 919d 0dbe 221c 81bc 13c5 cc3d 21b6 f0bd
00000280: 2ee9 423d 0a77 e8b8 1b50 c43e cd15 623d
00000290: d990 8bbc 9731 5fbe c96c a0be 5f73 62b8
000002a0: 18df a4bd 9c74 14bd 0adc 41be 85d5 08be
000002b0: a628 1dbe aa93 3abd abcd 7f3e c15d 08be
000002c0: d660 56bd c6f4 83bd c0e5 743d ebdd 24be
000002d0: e451 f837 a7b8 bc3e 9249 be3a fd23 12be
000002e0: e22c 6db8 8dc6 50be b70b 5fbb 0a8f aebd
000002f0: 5d0d 23be ce0b d23d a977 11b8 6e8f 3db7
00000300: a24c aabd 6e3c b13e 45e2 0c3e 7e84 60be
00000310: d04e d03e e1e6 34bd 7ded ceb8 523f 00be
00000320: 5ff4 acbe fc65 bdbd 70aa 163f 0afb 0f3c
00000330: 718c bc37 db32 74bd 991f ecb8 d498 29be
00000340: 5d18 b5bd fa67 dcbd 9e7e 03be 095e d8ba
00000350: 613b 9338 523a 84be a733 92bd 393e deb6
00000360: f582 2abe 3d54 13ba 193a 0bbd d430 00be
00000370: c162 00be 82c1 0ebd 60b1 33bd 0368 71bd
00000380: e8ad 33bc 2bbb 13b9 6d56 f23e 668e 2ebd
00000390: 3d7c f1bb 203f 753d c89c 87be 6545 ec37
000003a0: 8cc2 e2bd da2e 39bd 60d3 1e3e 74e6 ed3e
000003b0: 9b21 0b3d d946 b3bd deda 1bbe aafa bfbd
000003c0: 0400 7abd 9b34 d4bd cee2 5fbd 5217 163e
000003d0: 8cd0 6e38 de75 183e 27a0 eab9 9efc f4bd
000003e0: 7f98 70b7 1853 dc3e 1656 00bb 7be2 1bbe
000003f0: cfc3 973d 69dc d5bc 9b75 07b9 7e0f a1b8
-0.06503513 0.16284417 -0.020941693 0.3442802 -0.18513484 -0.0038214184 4.9751132e-05 -0.06284778
0.8389889 -0.068631195 -0.17451575 -0.012333276 1.5753323e-05 -0.05196322 6.0959133e-05 -0.045423195
-0.059059683 -0.06829455 -0.0869673 0.020070454 -0.00012951078 -0.1692521 -0.21276811 3.1927633e-05
-0.25343278 -0.0010983972 0.0009542759 -0.047568586 0.32661608 -0.0017389256 -0.038626395 -0.24476644
-0.027664954 7.6497796e-05 -0.12737739 -0.033957515 -0.029349491 -0.16498028 0.14357735 0.00011535016
-0.009080884 0.0033464036 -0.08138931 -0.07038937 -0.07060823 -0.040508393 -0.11802576 0.18829127
0.0017490641 -0.009860327 -0.03291899 0.062763974 6.852918e-05 -0.10317044 -0.00017449689 -0.103220284
0.0001298359 -0.13155986 -0.008194128 -0.03023469 -0.04330884 -0.025338577 -0.00012621285 -7.36402e-05
-0.037040148 -0.08359756 0.20846207 -0.08966892 0.06839694 0.27117243 -9.34032e-05 0.2674013
-0.20417395 -0.12882923 -0.023088949 0.0031641026 -4.390371e-05 -0.10410804 -0.00015489357 -0.050441254
0.120414704 -0.14862794 -0.0020650653 -0.00018705659 9.930025e-05 0.47603074 -0.08622697 -0.00012608345
0.272803 -0.0070123724 -0.057468046 -0.09508628 -0.1112678 -0.05530995 -0.0068182736 -0.10650923
-0.061436586 -0.00015541047 -0.039600052 -0.009249205 -0.017779946 -0.21331239 -0.12462417 0.0001087739
0.6108959 -0.07432191 0.19355729 -0.051474642 -0.14030863 0.014832348 0.095075615 -0.13224225
-0.11689355 0.41145217 -0.06303443 -0.10019207 1.9979314e-05 -0.110491134 -0.0004157685 0.11998972
0.00011160313 0.13134779 -0.00015736205 0.13167924 -0.17244354 -0.014376817 6.4706604e-05 8.964734e-05
-0.07926812 0.21478313 -0.052525334 -0.29145113 -0.30857685 -0.032117467 -5.7094516e-05 -0.10962345
0.55034095 0.095342614 0.51522493 -0.013589989 -3.053379e-05 0.10643953 -0.00010594307 0.14247258
0.12393496 0.04339558 0.35561702 -0.004261032 0.000119919874 0.043927263 -0.13559838 -8.7991146e-05
0.12678991 0.0003626042 -0.02587152 -0.08274184 -0.13829638 -0.015760485 0.099985264 -0.11753488
0.04758566 -0.00011084795 0.38342366 0.055196572 -0.017036842 -0.21796261 -0.31332996 -5.3990047e-05
-0.08050364 -0.03624402 -0.18931594 -0.13362701 -0.15347537 -0.04555098 0.249808 -0.13317014
-0.052338444 -0.06443171 0.05978942 -0.1610028 2.9602037e-05 0.3685963 0.0014517775 -0.14271541
-5.6547004e-05 -0.20388241 -0.0034034082 -0.08523376 -0.15923066 0.10256158 -3.4682136e-05 -1.1298673e-05
-0.08315398 0.34616417 0.1375819 -0.21925542 0.4068513 -0.044165496 -9.867081e-05 -0.12524155
-0.3378019 -0.092479676 0.58853817 0.00878788 2.2476745e-05 -0.059618812 -0.000112592425 -0.16562206
-0.088425376 -0.107620195 -0.1284127 -0.0016507517 7.0205664e-05 -0.25825745 -0.07138758 -6.6233592e-06
-0.16651519 -0.00056201575 -0.033990953 -0.12518626 -0.12537672 -0.034852512 -0.04387033 -0.058937084
-0.010966755 -0.00014088738 0.47331563 -0.04261627 -0.0073695467 0.059874654 -0.26486802 2.8165707e-05
-0.11072263 -0.045210697 0.1551032 0.46464884 0.033967596 -0.087537475 -0.1522021 -0.09373982
-0.06103517 -0.10361596 -0.054659657 0.14657333 5.6937846e-05 0.14888713 -0.0004475128 -0.119622454
-1.43406205e-05 0.43032146 -0.0019582561 -0.15223114 0.074103944 -0.026106076 -0.00012918415 -7.679964e-05

layer4.bias f4 [10]
00000000: 5dd2 1bb9 9fd8 cd3b f150 b1bc 48fa ab39
00000010: 2fff 00bd f9d2 b4bc e3b0 02bd 8852 a3bc
00000020: f2cf d43d 7405 863c
-0.00014860318 0.0062819268 -0.021645041 0.00032802136 -0.031493362 -0.022073256 -0.031906974 -0.019936815
0.10391225 0.016360022
